digit_app/backend/models/lenet_model.pt (torch, 250495 bytes, 10 tensors)

model.0.weight f4 [6, 1, 5, 5]
00000000: 9200 233e fa51 a9bd 78ad bebd 3513 c53d
00000010: 07e1 bd3d e036 9abc f41c b53d 95fa a23e
00000020: 61ea c83e de6c 9e3e 8c01 7e3e f1c3 143f
00000030: 5226 173f 6bc6 4c3e 14b2 873e 5b41 b9be
00000040: 7811 bcbe 0825 b2be 9026 aebe f3d1 0ebd
00000050: d6cc bebe 9b71 80bf c53b 9dbf 6cdc 7dbf
00000060: e6e5 50be d082 8d3d da53 f3be d601 d4be
00000070: 3f30 40be 7c79 9b3e 3b83 0b3c cf33 84bd
00000080: bfa5 40be b270 d7bf 3d00 bfbf ad5a 23be
00000090: 865c 4f3d 5157 b33f 07f9 a73f f35a 05bd
000000a0: 35a0 9d3e 87eb acbe b86c fc3e 67f2 223f
000000b0: a15b f63c dcd3 963d 2748 1fbf bdf5 25bf
000000c0: 75c6 08be a226 c43e a2b4 9ebe 49d1 ce3e
000000d0: 5136 1b3f 20a2 d43d 60ca 85be 99de d8be
000000e0: 5e4b 35be 3090 2f3f 1247 073e edad 92bf
000000f0: c878 4dbe c50b 303f 8e92 ac3f 07c9 33be
00000100: bc08 b3bf e65a 9e3e 899b 363f 6f55 51be
00000110: e52d 98bf 3324 18bf 97d1 0dbe 1e95 14bf
00000120: 55f9 79bf 575f f2be 0190 a33e 1d79 c03d
00000130: 03ee 43bd e95f 47be 66ed 19be 1eb8 31be
00000140: 5559 51be caa6 12bf 735d 53bf e9f0 173f
00000150: 46e8 b93e 57e8 cfbd 0b0c 0bbf a440 7abf
00000160: 0f90 f73e ce37 7b3f 46da 8b3e 486c 6ebe
00000170: e9b8 98bf 174a a6be 7125 463f c90f 223e
00000180: 11b6 6ebe 1192 35bf cf6f 77bf c9a2 5d3d
00000190: 7072 1ebf f6fe 0fbe 19e8 80be af83 cdbd
000001a0: 8515 14be d906 54bf 2e7a dbbe 18be 51be
000001b0: 6082 8cbe 703c 00be bc6b 80bd ae29 cebd
000001c0: 85fa 1bbe 3f91 c0be 42ad 58be 4f9d 333f
000001d0: 3bab c1be af31 09bf d95e c4be fee6 9ebe
000001e0: 58ec ae3f c262 a3be 999d 3cbf aeca fcbe
000001f0: 22c7 e8be 1134 98bc 72a4 c63d 375a e63e
00000200: e9fb 933e 1996 af3d 2bb3 903e 9c2f 2cbd
00000210: c5ce 78bf 9497 cabe 2ddc 77bd 6151 2b3f
00000220: fde9 d3bf 936e b8bf 48ad 503f 9057 2c3f
00000230: 0559 8c3d 1bad 9bbf a8d4 a23f aa2c c13f
00000240: adba f53d e967 c63e 7e9d 613e 963e 393f
00000250: 60e4 fdbe eb33 1fbf
0.15918186 -0.08267589 -0.0931043 0.09622804 0.09271436 -0.018824995 0.08843413 0.31831804
0.39241317 0.30942434 0.24805278 0.5811148 0.5904285 0.19997565 0.2650305 -0.36182675
-0.36732078 -0.34793878 -0.34013796 -0.034868192 -0.37265652 -1.003467 -1.2283865 -0.9916446
-0.204002 0.06909716 -0.4752491 -0.4140765 -0.18768404 0.30366123 0.0085151745 -0.06455194
-0.18813227 -1.6831267 -1.4921948 -0.15952559 0.050625347 1.4011022 1.3122872 -0.03255744
0.3078629 -0.33773443 0.49301696 0.63651127 0.030072989 0.07364628 -0.6221947 -0.6482809
-0.13356955 0.38310724 -0.30997187 0.40394047 0.60629755 0.103824854 -0.26130962 -0.4235733
-0.17704532 0.6857939 0.13210705 -1.1459328 -0.20065606 0.6876796 1.3482225 -0.17557155
-1.398704 0.30928725 0.7133108 -0.20442747 -1.1889006 -0.59430236 -0.13849483 -0.58040035
-0.97646075 -0.47338364 0.31945804 0.093981005 -0.047834408 -0.1947018 -0.15031967 -0.17355391
-0.20444234 -0.5728575 -0.8256447 0.59351975 0.36310023 -0.10151737 -0.5431525 -0.97754884
0.48352095 0.98132026 0.27314967 -0.23283494 -1.193143 -0.324784 0.7740088 0.15826334
-0.2331164 -0.70926005 -0.9665498 0.054110322 -0.6189337 -0.14062104 -0.25177076 -0.10034882
-0.14461334 -0.8282295 -0.42866653 -0.20482671 -0.27443218 -0.12523055 -0.06270549 -0.100665435
-0.15232284 -0.37610814 -0.21159843 0.7016191 -0.3782595 -0.53591436 -0.38353613 -0.31035608
1.3665876 -0.31911284 -0.73677975 -0.49373382 -0.45464426 -0.018579515 0.09699334 0.44990703
0.2890313 0.08573551 0.28261694 -0.04203759 -0.97190505 -0.3956877 -0.06051271 0.6692105
-1.6555783 -1.4408745 0.81514406 0.6732111 0.06852917 -1.2162203 1.2721148 1.5091755
0.11998496 0.38751152 0.22032735 0.72361124 -0.495883 -0.62188596

model.0.bias f4 [6]
00000000: 2231 33bc 2c9e c6be cbd9 39bf 560d 42bc
00000010: f8f3 c1bd 6e60 72bf
-0.010937007 -0.3879255 -0.7259795 -0.011844 -0.094703615 -0.9467839

model.3.weight f4 [16, 6, 5, 5]
00000000: 50ef 2cbe 5b6d 17bf fc6d 263e 52e5 853e
00000010: 33bc c63e d29c 9d3e 4e27 f1bd f970 18be
00000020: 43b9 16be 8fbc 28bd b7fe 573e 8f0f b83e
00000030: b51b e1be 5958 17bf b947 89bf fe90 88bf
00000040: 110b 6abf fe88 29bf eff9 a0be 64a0 92bf
00000050: 23b5 32be 89ed 643d a4cb 0e3f 9d13 4cbe
00000060: 7af2 27bf 56d5 f03e 8c75 bbbe 0c97 0abf
00000070: 068f bfbe e2cc 73bd 89b2 89be 1472 393f
00000080: ebf7 b23e 9922 8cbe 4ab9 ad3e 8b95 273f
00000090: 598a 3e3e 6478 b6bd f024 a33e 9edb d63e
000000a0: 9805 1d3f 7378 debb 4ff0 debe 4743 86be
000000b0: 6eab 8d3d 223d babe 86d8 fdbe 851e 28be
000000c0: 70c3 cbbe 7b52 d8be ae5d 94bd 26d3 093f
000000d0: b6ca 503f ac44 0c3f c011 173f ad8b ffbe
000000e0: 17cc 09bf 372f e3be aff5 02bf df4e 93bd
000000f0: e519 48bf cf22 27bf 6de0 37bf 35eb 2fbf
00000100: 0db6 81be 4cfb b13c f62b 73be 014e 113e
00000110: 9502 dbbd 86e8 b8be cd54 eb3e 1784 bb3d
00000120: 5251 0d3f 4a7a d63d 74ef 94bd 74b4 c5be
00000130: 4076 afbe bbf9 d2be 6c94 39be 6962 98be
00000140: 7f34 68bd 6be2 0fbe fbcb c0bc f6fb 9f3e
00000150: d1fc c6be e021 bc3d 46a3 b33e af31 953e
00000160: aa6a 2b3f 29d4 9abd b399 6e3d 64f9 c83d
00000170: 8da7 c23d 8f8e 033f e128 923e a59f 93be
00000180: d9dd 8ebe 1c83 55be 917d c33e e445 7e3e
00000190: 6574 9dbe 603d debe 019b 9dbe b66a 6e3e
000001a0: a7be ccbe 68ba 023f bdea 823e c999 9f3e
000001b0: eab3 553f 0a2e fd3e 6da6 853f e579 813f
000001c0: a593 2c3f baf3 ac3e 65fb 203f 31a8 343e
000001d0: 3664 773e b4d1 f93b c776 07bd 8205 2d3c
000001e0: 129b c4be 9491 37be 3c8a b0be 95e8 54bd
000001f0: e700 93be 48ee b63e 4e6c c03d 9f5c 27bf
00000200: eb38 e7bd 8497 76be b664 c4be 4079 36bf
00000210: 0ba0 e0be db3e 00bf 3825 bf3e b376 843e
00000220: d0be 8dbe 7b19 35bf 54b4 7bbe 3dc6 223e
00000230: c02a 6c3d b48f 033e 70de 8e3d ff33 bdbc
00000240: 94fb 4e3d ffee 5c3f dc4a 543e 067f 21be
00000250: 6331 3c3e 0fa7 c13e 736c 5c3d 16a1 8d3e
00000260: 107b 36bd 6ad7 3abe 22e0 743e 46bd debd
00000270: 53fa 0abd 6aca 21be e86c 1f3e 641b a73d
00000280: 32d6 b1be 5992 a03e ad31 ed3e f62b 023e
00000290: 134e 50bf 06be a7be c523 bbbe 5de8 bebe
000002a0: 20bc 99be e571 83be 26a8 2ebf 28b5 adbe
000002b0: 53f9 17bf 8f7d e6be 0e82 05bf 50a9 80be
000002c0: 48b4 d9be 0de4 c6be 7a72 47bf 634a 9cbd
000002d0: 98cf 94be 4bec 6ebb 64be b5be 163e a2be
000002e0: 450d 61bf bc6c 13bf e642 7fbe 5de5 36be
000002f0: 7a4e 68be 3a62 14be 27ea bebe 0a5b fc3d
00000300: 745c 8abd a17e 023f f8d4 693f 5618 18be
00000310: e16e 103f 1818 cf3e c249 623e 33bf 863f
00000320: 86e4 4b3c 52e3 29bd 36d7 783e d57c 593d
00000330: 1d78 e73e 7701 cb3d 9539 443c 371c 8d3e
00000340: b01e 023e 5dc7 823f 997c 873d 0be6 803e
00000350: 84bb 883e 489b 0a3f 9b42 2b3e 4f73 493e
00000360: 1c18 94be 8cf9 68be 83ac 47bf 0b54 02bf
00000370: f025 b8bd 5202 88be d79b 71bf 84fd 10bf
00000380: 0ce0 1fbf 3005 df3e 6f34 223e 59c7 bebd
00000390: 8b2d a33e 0c60 d3bb 375d 9e3e a3dc 283f
000003a0: a296 483f d579 a63e c0e4 69be 98e2 f83c
000003b0: ab02 d03d b697 d9bd 36bf dcbe e258 33be
000003c0: 5409 d6be 6bc5 61bf 20b8 88bf ce6a 03bf
000003d0: 01a9 7cbe 666d d3be 3c03 d6be 1434 f4bd
000003e0: f296 6fbe 285a 833d 46a9 d93d a074 943e
000003f0: 1032 583e ed5c 68be 9cbf f0be c9b7 74be
-0.16888165 -0.5915124 0.16252893 0.2615152 0.3881546 0.30783707 -0.11775075 -0.14886846
-0.14719109 -0.04119545 0.2109326 0.3594937 -0.4396645 -0.5911918 -1.0725013 -1.0669248
-0.91423136 -0.6622466 -0.31440684 -1.1455197 -0.1745191 0.055890594 0.5577948 -0.19929357
-0.65604365 0.47037762 -0.3661312 -0.5413673 -0.37413806 -0.059521563 -0.26894024 0.72439694
0.3495477 -0.27370146 0.33930427 0.6546256 0.18607463 -0.089096814 0.3186412 0.4196443
0.6133666 -0.006789261 -0.43542716 -0.26223204 0.06917463 -0.36374766 -0.49579257 -0.16417892
-0.39797544 -0.42250428 -0.072444305 0.5383781 0.8155931 0.54792285 0.5901146 -0.49911252
-0.5382704 -0.4437196 -0.51156133 -0.07192778 -0.7816451 -0.6528749 -0.7182682 -0.6871827
-0.25334206 0.021726273 -0.23747239 0.14189912 -0.10693852 -0.361149 0.45963135 0.091560535
0.5520221 0.104725435 -0.072722346 -0.38614237 -0.34269905 -0.41206154 -0.18123025 -0.2976258
-0.05669069 -0.14051215 -0.023534765 0.31246918 -0.3886476 0.09186149 0.35085505 0.29139468
0.6695963 -0.075599976 0.058252048 0.098131925 0.09504614 0.513894 0.28546813 -0.28832737
-0.2790363 -0.20850796 0.38181737 0.24831349 -0.30752864 -0.434062 -0.3078232 0.23282894
-0.39989206 0.51065683 0.25569716 0.31172016 0.8347765 0.49449188 1.0441414 1.0115324
0.6741279 0.337797 0.628836 0.17642285 0.24159321 0.0076238755 -0.03307226 0.010560395
-0.3839956 -0.17926627 -0.34480464 -0.05197962 -0.28711626 0.3572867 0.093956575 -0.65375704
-0.11290153 -0.24081236 -0.38358086 -0.7127876 -0.43872103 -0.5009591 0.37333083 0.2587181
-0.2768464 -0.70742005 -0.24580508 0.15895934 0.057657957 0.12847787 0.0697602 -0.023096083
0.050532892 0.8630218 0.20731682 -0.15771112 0.18378215 0.37822768 0.053814363 0.2766196
-0.044550955 -0.18246236 0.23913625 -0.10875945 -0.033930134 -0.15799871 0.15568888 0.08159521
-0.3473373 0.31361654 0.46326962 0.12712082 -0.8136913 -0.32762164 -0.36550727 -0.37286654
-0.3002634 -0.25672832 -0.68225324 -0.33927274 -0.59364814 -0.4501767 -0.5215157 -0.25129175
-0.42520356 -0.38845864 -0.7790905 -0.07631376 -0.2906463 -0.003645676 -0.3549682 -0.31687993
-0.8791087 -0.5758779 -0.24927863 -0.17860933 -0.22686186 -0.14490595 -0.3728802 0.12322052
-0.06755915 0.5097447 0.9134059 -0.14853033 0.5641919 0.4044807 0.22098449 1.0527099
0.012444621 -0.041476555 0.24300846 0.053097565 0.45208827 0.09912389 0.011976619 0.2756059
0.12707019 1.0217091 0.06615562 0.2517551 0.26705563 0.5414319 0.16724627 0.19672893
-0.28924644 -0.22751445 -0.77997607 -0.5090949 -0.08991611 -0.2656427 -0.9437842 -0.56636834
-0.62451243 0.43558645 0.15840314 -0.09315366 0.31870684 -0.0064506587 0.30930492 0.65961665
0.7835485 0.32514825 -0.22841167 0.030381486 0.10156759 -0.1062464 -0.43114632 -0.17514375
-0.41803992 -0.8819186 -1.068119 -0.51334846 -0.24673845 -0.41294402 -0.41799343 -0.119239956
-0.23397425 0.0641368 0.106279895 0.28995228 0.21112847 -0.22691698 -0.47021186 -0.23898233

model.3.bias f4 [16]
00000000: 3f81 04bf f48e 65be 566f 17bc 79a9 e6bd
00000010: 2e07 c4be 66f2 64bf 6797 73bf d759 6fbf
00000020: dd98 2db9 f6c2 9cbb 3b80 6ebe 9214 08bb
00000030: 25de debd 26ff b2bf 961e 8fbf 5b8f 19bf
-0.51759714 -0.22417814 -0.009242853 -0.11262793 -0.38286728 -0.8943237 -0.95152897 -0.9349646
-0.00016555512 -0.0047839833 -0.23291104 -0.0020764214 -0.108822145 -1.3984115 -1.1181209 -0.5998437

model.7.weight f4 [120, 400]
00000000: 41a1 15b7 a0bd 34b7 b3de c936 4a1a 5dbc
00000010: 5d14 1bbd 25be 0736 1b9c 6737 25aa 1839
00000020: 04f4 28bb 78b1 9e3a 78db a3b8 2ed4 ffba
00000030: 72dd b2b6 b828 cd38 12ed d437 b78d 15b8
00000040: 0f52 1739 f3bd 1d37 0b3b e4b7 1d87 3139
00000050: 7b85 bb36 7d24 d6b6 588a fab7 9d43 9736
00000060: 20d7 2635 1b94 96b5 982f 8437 9ade e9bb
00000070: ca32 8637 595b 9036 41cc aab7 a771 7335
00000080: a341 3b38 ba05 73b8 d546 eab7 1bf9 f937
00000090: 788a e93b f84e 6739 d29e b5b8 0644 2737
000000a0: 0f34 9335 d8f2 b837 7e52 8eb7 446c fdb6
000000b0: 60a2 2e38 dc69 06b8 a298 fbb7 99f4 cf37
000000c0: c2bd 6cb7 2c49 7737 0ebf 2fb8 2608 96b9
000000d0: 1095 4ab9 8085 5438 3733 1838 7fc6 b1b8
000000e0: 9a34 4039 1d08 6337 45b8 b9b8 ab26 3839
000000f0: e953 adb8 0f70 0139 3e3c e6b8 0cf1 d7b8
00000100: cfdf fc38 4ee7 7db7 266f 0fb8 d0c4 5639
00000110: eb09 7c39 3826 92b8 c5d1 9438 acb2 2ab9
00000120: 2200 87b8 85e1 8bb9 5788 5a37 302e b2b8
00000130: 81f0 1b38 5bdb 45b9 7f35 0539 4b3c 8a38
00000140: 1c74 f2b8 5ff1 8d38 351a bc38 0f16 2438
00000150: d5e0 ca38 f268 f238 1c7c 7b38 4612 21b9
00000160: 3f46 40b9 0368 0339 67de 96b8 0aa0 cd38
00000170: a2e5 6937 c5d1 2539 62b2 ec38 8b12 03b9
00000180: e501 4a39 c91a 4839 d387 0739 91d7 2638
00000190: 5469 5e37 16ff 1b37 bc03 b734 e68c b2b7
000001a0: c8a7 4235 f5b4 c437 75f0 b638 f390 7ab8
000001b0: 66c5 5734 c5fd e636 7309 5137 e681 84b7
000001c0: 6b48 d4b7 7247 53b4 5307 4435 f7bc 263a
000001d0: d6a4 b43a 967e 89b7 585c 9fb5 9338 3135
000001e0: 2b65 14bb b491 1b39 1223 88b3 b867 9d34
000001f0: 25bd 0938 60aa 4637 9066 a632 0976 5cb6
00000200: 0fd8 f6b6 c6f6 6635 36ae 7c32 04ff 7fb7
00000210: 91ca d638 e560 fb36 e559 24b6 f482 5537
00000220: 16ef 24b6 674a b136 b6b3 e236 ee03 1238
00000230: eddb fd34 4d54 3bb6 a43c 1fb6 6c2d a6b6
00000240: c74f bbb7 23de f5b0 a935 3eb7 1813 a7b5
00000250: 9ac2 0ab7 26e2 2737 d0ac 68b7 292c 1538
00000260: e930 f6bb 3445 8bb8 7519 9fb5 30c0 8d35
00000270: dd25 eabb bbfc 2abd 61bc b838 4509 30b8
00000280: c623 f4b6 4568 3e37 6825 8ab5 7dae 18b7
00000290: 2d73 1fb3 f2cd 5137 9efb 00b7 dafc c9b7
000002a0: 73fe b0b7 aef1 5937 b6c3 e836 43f8 eb34
000002b0: 107d 4636 ef9e f4b7 023a 2536 c80d bbb5
000002c0: 0c47 14b4 91d3 0cb7 8b7c 8237 ad09 8d36
000002d0: 3be0 30b4 f18b 8fb4 b4ee 1735 8faa 8d38
000002e0: a921 c7b6 96a3 9b36 3f60 ab37 aba0 0038
000002f0: c546 8539 d70b 27b5 5f49 3836 2d58 2b37
00000300: 7bad 8ab8 e151 a438 31d9 7b36 a681 442e
00000310: 179c 8637 d677 6339 7e2b 0038 0c57 4635
00000320: c92a 90b9 113b c8b9 704f 3a39 de78 5db9
00000330: 8d83 c6b8 fc26 e137 eb5c 8639 632e 9839
00000340: 7741 d038 2c6c ea38 12a3 1938 9dac 8fb9
00000350: db15 74b8 e684 44b9 8dbe afb8 24ed a438
00000360: bfc5 91b8 d785 fa37 9ab1 93b7 794d 8c36
00000370: f176 6939 f930 24b8 f3aa d638 8724 e3b6
00000380: 883a 18b8 6fa8 99b9 14cf a938 01de ebb7
00000390: 89c9 f837 ecc3 89b9 2e2d b739 b388 46b9
000003a0: 4c40 02b8 2218 d437 30d1 0cb9 fee3 1136
000003b0: f2b3 5bb8 98af 97b8 1edc 6738 7e40 4cb9
000003c0: e2e9 043a cd0c eeb7 75bc ddb6 3f0c 2d39
000003d0: 00ec d1b6 4f21 77b8 e3c8 d5b9 ca75 eb38
000003e0: 1fc9 8eb8 b80b dfb8 5ccb 3bb7 e778 5b37
000003f0: 1b19 953b 951d 9338 c720 e7b7 e4d5 4f37
-8.918637e-06 -1.0772987e-05 6.0161924e-06 -0.013495037 -0.037861217 2.0227246e-06 1.3805019e-05 0.00014559233
-0.002578021 0.0012107333 -7.813325e-05 -0.001951819 -5.330593e-06 9.782746e-05 2.5382764e-05 -3.565635e-05
0.00014431051 9.402155e-06 -2.7207212e-05 0.00016930369 5.5885735e-06 -6.381945e-06 -2.9866744e-05 4.508022e-06
6.2152867e-07 -1.1218975e-06 1.5757789e-05 -0.007137132 1.5997695e-05 4.3021687e-06 -2.0360692e-05 9.068994e-07
4.4645403e-05 -5.7941048e-05 -2.7927957e-05 2.9799112e-05 0.0071271025 0.00022059295 -8.660335e-05 9.969814e-06
1.0967505e-06 2.2047592e-05 -1.6966133e-05 -7.5525913e-06 4.1636056e-05 -3.204668e-05 -2.9992607e-05 2.4790223e-05
-1.4110878e-05 1.4739384e-05 -4.1901185e-05 -0.000286163 -0.00019319751 5.066907e-05 3.628732e-05 -8.4769905e-05
0.00018330142 1.3532143e-05 -8.85581e-05 0.00017562012 -8.264912e-05 0.00012344144 -0.000109784756 -0.000102968974
0.00012057984 -1.513383e-05 -3.4197372e-05 0.00020481949 0.00024036288 -6.968941e-05 7.0962626e-05 -0.00016279024
-6.4373264e-05 -0.0002668017 1.3025557e-05 -8.4963045e-05 3.7178866e-05 -0.000188691 0.00012703797 6.591583e-05
-0.00011561086 6.768363e-05 8.96942e-05 3.912119e-05 9.673989e-05 0.00011559007 5.995865e-05 -0.00015360964
-0.00018336716 0.00012531881 -7.193983e-05 9.804971e-05 1.3941348e-05 0.00015813771 0.00011286583 -0.00012500041
0.00019264927 0.00019083465 0.00012925202 3.9778246e-05 1.3256755e-05 9.298112e-06 3.4089123e-07 -2.1284864e-05
7.2514786e-07 2.3449285e-05 8.723225e-05 -5.973964e-05 2.0095248e-07 6.884077e-06 1.2459571e-05 -1.5796115e-05
-2.5306092e-05 -1.9676898e-07 7.302635e-07 0.00063605554 0.0013782035 -1.6390619e-05 -1.1873299e-06 6.6019965e-07
-0.0022643309 0.0001483623 -6.339373e-08 2.9318994e-07 3.28395e-05 1.1841388e-05 1.9371583e-08 -3.285126e-06
-7.356524e-06 8.604078e-07 1.47079415e-08 -1.525856e-05 0.00010242046 7.491663e-06 -2.449023e-06 1.2726279e-05
-2.457707e-06 5.2836726e-06 6.756246e-06 3.4812772e-05 4.728494e-07 -2.791424e-06 -2.3728144e-06 -4.9524733e-06
-2.2329286e-05 -1.7889231e-09 -1.1337376e-05 -1.2448027e-06 -8.27075e-06 1.000663e-05 -1.3868514e-05 3.5565496e-05
-0.0075131548 -6.6409266e-05 -1.1853832e-06 1.0561253e-06 -0.007145627 -0.04174493 8.808892e-05 -4.1970303e-05
-7.2759312e-06 1.134916e-05 -1.0292688e-06 -9.100532e-06 -3.7124824e-08 1.2505321e-05 -7.687979e-06 -2.407881e-05
-2.1099322e-05 1.2990478e-05 6.9369225e-06 4.3952795e-07 2.9577095e-06 -2.9161076e-05 2.462068e-06 -1.3936597e-06
-1.3809421e-07 -8.393909e-06 1.5555202e-05 4.203254e-06 -1.6472852e-07 -2.6737646e-07 5.659924e-07 6.755173e-05
-5.9345807e-06 4.638404e-06 2.0429607e-05 3.0667212e-05 0.00025420464 -6.222958e-07 2.7460844e-06 1.0212924e-05
-6.612666e-05 7.8353805e-05 3.7528337e-06 4.468039e-11 1.604673e-05 0.0002169305 3.0558083e-05 7.388742e-07
-0.00027497698 -0.0003819098 0.00017767935 -0.00021121229 -9.465879e-05 2.6840244e-05 0.000256277 0.0002902626
9.930407e-05 0.00011178138 3.6629914e-05 -0.00027403692 -5.8194488e-05 -0.00018741525 -8.380143e-05 7.8643e-05
-6.950972e-05 2.9864646e-05 -1.7606468e-05 4.181344e-06 0.0002226492 -3.9146256e-05 0.00010236157 -6.7693795e-06
-3.6294135e-05 -0.00029307927 8.097119e-05 -2.8117562e-05 2.9657751e-05 -0.0002627665 0.00034938141 -0.00018933676
-3.1054296e-05 2.5283607e-05 -0.00013429369 2.1739393e-06 -5.2381256e-05 -7.232948e-05 5.5279692e-05 -0.00019478981
0.00050702516 -2.8377772e-05 -6.6082525e-06 0.00016503128 -6.2561594e-06 -5.892041e-05 -0.00040776198 0.00011227613
-6.8085494e-05 -0.000106356514 -1.1193417e-05 1.3081567e-05 0.004550112 7.015016e-05 -2.7552609e-05 1.2387962e-05

model.7.bias f4 [120]
00000000: 9fea 0abd f37c 28be a213 d4bc 713d caba
00000010: d834 90bd 8e65 39be 08c1 98b5 c517 58be
00000020: e852 73bc 063c 023f 9972 80bc 0263 80bd
00000030: 540f 7aba 7f4a 28be 019e e0bd 3f3f 97bd
00000040: ca06 04ba d3bc 80ba baff 2db8 1908 18be
00000050: 04cc 20bd b30d 98bd 29ae 39bc a1e1 57bd
00000060: 0a95 8bbd 74df 6abd 772a 03bb 7c6e 15bd
00000070: e3e7 25bd f686 1c3c 1b6b acbe 6b76 a8bd
00000080: b974 4abd 2d69 dcbb a6df 04bb b9f8 f6b9
00000090: 764d cebb 27f5 23bc 329d 6aba e5be 4db9
000000a0: 91ed 79bb ba68 0bbe d481 c2bb 25cd 0abe
000000b0: 67de 7abe 3326 dd3e 4106 49be 2e33 22bb
000000c0: 659c c3bc 0a8d d3bd c6ca bdbd 6bca 39bc
000000d0: 0cfb a7bb 846c 55bb 2cb3 8cbd 4b8d a0bd
000000e0: 8024 b0bd 9e99 b7bd 9696 69b8 9821 b4bd
000000f0: ac08 e2bc 7327 f7bc f348 9bbd e206 0abe
00000100: 3f0e 4dbc 6350 02b9 9df0 9cbd ce4e e2bd
00000110: 1bd0 34be eb13 f6bd ec2e e43d d43b b1bd
00000120: c751 94bd e4c0 09bb dc40 8cbb e6c0 0abb
00000130: 32ed 68be e5b3 253d 5180 2fbe c5df e1bc
00000140: ce40 4ebb db1b 8bbe 6eb9 95bd 4d86 6c3b
00000150: ccd8 e0b8 aa26 b2bd 8590 41b9 b603 2eba
00000160: b78c 2bbe 4e3f 9fbd 87b8 eebc 80ef edbd
00000170: 2a3f dfb9 f1ba 23b9 216a 28be 6d9c 70ba
00000180: c856 28bd 020d 2dbe a208 02be ec96 f2b8
00000190: a2ec 5f3d d835 b8be 6e15 99bc a3a7 03be
000001a0: fa3f 87bd e528 e1bb fcc5 bbbd 9499 a4bc
000001b0: 08b1 fcbc 2c15 58be 34cd b4bd 2b6f 813b
000001c0: aa31 dcb9 2694 2ebd 9bb5 03bd 4c31 edbc
000001d0: 5959 ebba 6c1e 1fbd 23f4 1cbe 5ecb 74be
-0.03391516 -0.16453914 -0.025888268 -0.0015429688 -0.07041329 -0.18105146 -1.1381062e-06 -0.21102817
-0.014851309 0.5087284 -0.015679644 -0.06268884 -0.0009539027 -0.16434668 -0.10967637 -0.0738511
-0.0005036412 -0.0009821899 -4.1484578e-05 -0.14846839 -0.039257064 -0.07424488 -0.011333027 -0.05270541
-0.06815536 -0.057342008 -0.0020014325 -0.03648232 -0.040504348 0.009553662 -0.33675465 -0.082257114
-0.04942772 -0.006726405 -0.0020274906 -0.0004710609 -0.006295855 -0.010007179 -0.00089498155 -0.00019621437
-0.0038135985 -0.13614169 -0.005935887 -0.13554819 -0.24498902 0.43193206 -0.19631292 -0.0024749744
-0.023878286 -0.103296354 -0.092671916 -0.011339764 -0.0051263627 -0.00325659 -0.06870112 -0.078394495
-0.08600712 -0.08964847 -5.5691773e-05 -0.0879547 -0.027592026 -0.030170178 -0.07582273 -0.13479188
-0.012515604 -0.00012427712 -0.07663081 -0.11050187 -0.17657511 -0.12015518 0.11141762 -0.086539894
-0.0724216 -0.0021019513 -0.004280193 -0.0021172105 -0.22746733 0.040454764 -0.17138793 -0.027572522
-0.0031471732 -0.2716969 -0.073107585 0.0036090792 -0.00010721534 -0.08698781 -0.00018459752 -0.0006638126
-0.16752897 -0.07775746 -0.029140724 -0.116179466 -0.00042580935 -0.00015614532 -0.16446735 -0.00091785827
-0.041098386 -0.16899493 -0.12698606 -0.000115675706 0.05466903 -0.3597858 -0.018686976 -0.12856917
-0.066039994 -0.00687133 -0.09168622 -0.020092763 -0.030846134 -0.21101826 -0.08828202 0.00395002
-0.00041998673 -0.042621754 -0.032155614 -0.02895417 -0.0017955705 -0.038847372 -0.15327506 -0.23905703

model.9.weight f4 [84, 120]
00000000: 6d44 12b3 6c99 43b7 087c 95a9 e628 1f36
00000010: 7d09 ceaf a328 1d34 2ea4 a926 592c 3f36
00000020: cd07 e2b6 2f64 3637 4e72 6e30 5677 5cba
00000030: 0792 fba5 32f6 2fb3 2755 c1b0 0c4d 8cab
00000040: 73c0 a339 84a3 86a6 8db0 cfa7 49b6 a839
00000050: 3f45 6a38 747c b635 feee 2337 e547 c229
00000060: 602c eeb9 0ebc 9e39 2221 062d 7a30 032d
00000070: ac53 35ab 2992 82b7 2f14 4bbc dff3 8735
00000080: 3b85 1cb4 1a22 24a6 2ea5 1fa8 cdd0 97b4
00000090: f6e7 b2ac c356 b628 6efc 11a9 1cf9 92a7
000000a0: bc67 942a 3c27 2335 4d39 822d 65bb 7232
000000b0: 579b 2735 d950 21bb 6ddb 88aa 19af 0c26
000000c0: f336 312b 6426 7b2e c36c 1a36 b071 9231
000000d0: bc1b 36a8 51c5 b6aa 89f9 b8b5 0ced 4cb0
000000e0: 9204 b836 8a3f d831 6f84 20a9 8440 d331
000000f0: e953 89af 2c85 e9af 397e 22b3 764b 2236
00000100: 644d 93b6 1242 d036 79ca b0ac 6fff f8b8
00000110: a375 3e33 85b6 a737 bb6f cfb8 97c4 edaf
00000120: f2c2 bd33 2717 0b2e 5574 6627 6630 9d33
00000130: 64aa 5cbc b7de 183b 19f0 22b8 33ec 7130
00000140: 68b1 d1ad 1abc c8ba 2c1c 05b2 c7c3 14b1
00000150: ad15 242f 1b03 ec35 8902 1b2e e309 0e2d
00000160: 0737 8833 39e0 002f 5cb5 412c ef6e 4435
00000170: 704f 36b8 a58f f6ab 4755 8132 ed0b 9aa7
00000180: 8d1b 5930 4ec3 862f ae5b 7a36 00d2 08ad
00000190: feac 3e35 dcb7 acba 1ed5 93aa 5808 d433
000001a0: 08c3 07af 3cb9 33af 5085 3db8 54ab 20aa
000001b0: 5c2d 35aa a0bd 05b4 7c69 0730 f2da 13b7
000001c0: c15c dc32 203b c7bb 8fae 7c2f 2c3d 7933
000001d0: 7100 942e c0a4 4aaf 51dd 5f31 2349 48ba
000001e0: 3d81 e4b9 2207 3c37 1884 ecad 9b93 05aa
000001f0: abb8 ce35 6324 07b9 0e25 049f feb7 44b9
00000200: 18cf 6c37 5013 ca31 3f0d f939 8bb4 8cb8
00000210: cc21 222e 0642 cb10 4c7c e2b8 b2d5 0ea9
00000220: 86ba 9037 73d0 c227 b55a 05b3 da18 b1b9
00000230: 4de1 6b38 9cce 90b8 cdaa e8a7 db6d 9fb0
00000240: 56d2 1dbc c61e 8c38 02ad dd27 9091 ceb8
00000250: dad9 8e2f 1130 b926 9414 8aba c269 ec30
00000260: a45f f428 2b5c 752a 866d 06a8 dd41 c6a1
00000270: dbf8 132a e50a 77b4 dc2b 9f28 aff9 65b9
00000280: 35c6 80a6 8d86 3fb8 51c7 beb8 330d fd35
00000290: b9f9 4eb4 eb54 33bb aa9a a9b5 00e9 c033
000002a0: 1d4c c32d 160d 0733 5886 2605 cd0b f622
000002b0: 0466 29ae 30fc 58b8 a075 03b9 2573 c0ad
000002c0: c2cc f304 0255 5634 bcec 70b7 241d c236
000002d0: 787c 1d37 a147 2fa6 932e 4cb8 7c9d dd38
000002e0: a438 b928 e33c 3b2f 1152 4db9 5f0f b336
000002f0: 4375 533a 9729 6539 41da 5236 9121 38b9
00000300: b2d3 9233 607e 2a27 1912 67a8 0b7d ce38
00000310: 3968 5836 47ac b6b2 35e0 5ab8 84aa d238
00000320: 96af 53a2 d7e0 73ba e72d 92b2 88e1 b531
00000330: 7751 a3b9 098a 762c 30a3 9123 a4b0 9d22
00000340: f139 8fa7 8560 1d38 60e8 b337 948f 64b9
00000350: d9a0 b8b7 9b3e 1038 7b5f 7427 d192 1e9a
00000360: f03b 10b0 1ec1 70b7 d0d4 03aa 169c fdb8
00000370: 4a2d 3cb9 6cfc c0bc ddaf 2fa5 dc88 3530
00000380: 506d a939 a9e9 6ab9 41e0 c739 fa0f fbac
00000390: 5ad5 dda4 1c82 5a39 a63f d9a3 138c 30b3
000003a0: 9db1 5428 1f66 16b9 25c7 450a e3e3 15b9
000003b0: 5958 29a9 2e30 c7b8 282d 0ba9 c006 47ba
000003c0: eaf7 203d 9fa2 8d3d fb8a 8f3c 9aac c6b8
000003d0: eaad 0dbd 1cd0 033e 01ac e62f 98a3 da3d
000003e0: 319c 26bc 291a bd3f f379 863c 90c4 80bd
000003f0: d03f ceba 993a b2bd 0c48 55bd cb71 94bc
-3.4055507e-08 -1.1658627e-05 -6.638445e-14 2.3716652e-06 -3.7477924e-10 1.4636548e-07 1.1771232e-15 2.8487032e-06
-6.736233e-06 1.0871371e-05 8.674633e-10 -0.00084101164 -4.364051e-16 -4.0969276e-08 -1.40668e-09 -9.968983e-13
0.0003123317 -9.342439e-16 -5.764546e-15 0.0003217927 5.5854438e-05 1.3596277e-06 9.771202e-06 8.6278024e-14
-0.0004542796 0.0003027622 7.624375e-12 7.457252e-12 -6.4420236e-13 -1.5565269e-05 -0.012394949 1.012926e-06
-1.4577101e-07 -5.6945146e-16 -8.862091e-15 -2.8277864e-07 -5.084817e-12 2.0243686e-14 -3.2415416e-14 -4.0793225e-15
2.6362061e-13 6.0779325e-07 1.4804736e-11 1.41288625e-08 6.24384e-07 -0.002461484 -2.431071e-13 4.880956e-16
6.295929e-13 5.710489e-11 2.3011096e-06 4.262084e-09 -1.01090435e-14 -3.246661e-13 -1.3781693e-06 -7.455163e-10
5.4841594e-06 6.293651e-09 -3.5642005e-14 6.148243e-09 -2.4979777e-10 -4.2477077e-10 -3.7833363e-08 2.4183805e-06
-4.389951e-06 6.2065747e-06 -5.0247e-12 -0.0001187314 4.4344812e-08 1.9992944e-05 -9.8913406e-05 -4.3249734e-10
8.836459e-08 3.1625504e-11 3.1981976e-15 7.319686e-08 -0.013468359 0.0023326108 -3.884742e-05 8.801095e-10
-2.3839333e-11 -0.0015314848 -7.7480244e-09 -2.164812e-09 1.4923414e-10 1.7584274e-06 3.524517e-11 8.073961e-12
6.343003e-08 1.1721192e-10 2.7527624e-12 7.317712e-07 -4.3466163e-05 -1.7519221e-12 1.5056356e-08 -4.2756516e-15
7.898329e-10 2.451323e-10 3.7306268e-06 -7.777334e-12 7.103225e-07 -0.0013177353 -2.6260325e-13 9.873537e-08
-1.2347467e-10 -1.6345764e-10 -4.518527e-05 -1.4270296e-13 -1.6091767e-13 -1.2455575e-07 4.9262616e-10 -8.81286e-06
2.565355e-08 -0.0060800463 2.2981282e-10 5.8030466e-08 6.730339e-11 -1.8430324e-10 3.2576575e-09 -0.0007640293
-0.0004358384 1.1207334e-05 -2.6888755e-11 -1.1863984e-13 1.5401941e-06 -0.00012888158 -2.7982738e-20 -0.00018760559
1.4114914e-05 5.8811693e-09 0.0004750285 -6.709349e-05 3.6864553e-11 8.017111e-29 -0.00010799672 -3.1715685e-14
1.7252994e-05 5.4071818e-15 -3.1048973e-08 -0.00033778587 5.6238194e-05 -6.904939e-05 -6.457812e-15 -1.1599995e-09
-0.0096326675 6.681452e-05 6.1527398e-15 -9.8499586e-05 2.5984442e-10 1.2849982e-15 -0.0010534697 1.7201318e-09
2.713092e-14 2.1792348e-13 -7.462243e-15 -1.3434436e-18 1.3142562e-13 -2.3007631e-07 1.7671567e-14 -0.00021932156
-8.935508e-16 -4.566326e-05 -9.0970316e-05 1.885381e-06 -1.9276094e-07 -0.0027363847 -1.2636494e-06 8.983079e-08
2.2202734e-11 3.144404e-08 7.8299575e-36 6.669093e-18 -3.851676e-11 -5.173328e-05 -0.00012536952 -2.1879007e-11
5.7317066e-36 1.9961229e-07 -1.4360234e-05 5.785043e-06 9.386909e-06 -6.0812397e-16 -4.8680766e-05 0.00010567435
2.056369e-14 1.7029182e-10 -0.00019580896 5.336405e-06 0.00080664846 0.00021854635 3.141948e-06 -0.00017560112
6.837162e-08 2.3660747e-15 -1.2827e-14 9.8461365e-05 3.2247174e-06 -2.1265931e-08 -5.218406e-05 0.00010045341
-2.8688787e-18 -0.0009303218 -1.7017511e-08 5.2934332e-09 -0.0003115048 3.5035328e-12 1.5790044e-17 4.274196e-18
-3.9753293e-15 3.7521608e-05 2.144667e-05 -0.00021797261 -2.200941e-05 3.439058e-05 3.3913562e-15 -3.279223e-23
-5.247207e-10 -1.4350078e-05 -1.1708971e-13 -0.000120930534 -0.00017945949 -0.023557864 -1.5238415e-16 6.6041905e-10
0.00032315636 -0.00022403024 0.0003812332 -7.135623e-12 -9.6204904e-17 0.0002083857 -2.3554143e-17 -4.110559e-08
1.1806878e-14 -0.00014343158 9.52266e-33 -0.00014294642 -3.7602168e-14 -9.4980336e-05 -3.0903367e-14 -0.00075922534
0.03929893 0.06915783 0.017522326 -9.473525e-05 -0.034589685 0.12872356 4.1958972e-10 0.10675734
-0.010169075 1.4773608 0.016415572 -0.06287491 -0.001573557 -0.08702583 -0.052070662 -0.018120667

model.9.bias f4 [84]
00000000: b00c b1bb 5462 29bb 6392 853e a3c4 1ebb
00000010: ab81 40b9 988c 77bd 4f63 d2bd ccde 93bc
00000020: 274d 283e c7fa 88bd 1bbf 3a3f d9d5 0abe
00000030: 4015 5cbd 06b8 edbc f94c e8bd 2718 f8bc
00000040: b323 c4bc 6a2d 08be 35ba c4bd ed40 19be
00000050: 5145 afbd c1d3 3fbb faa6 f6bd 297d 95bc
00000060: 3fe8 3a3b a28f 25bd 3378 3dbe 4aec 02bd
00000070: 9d7f f8bc f2bf 72bd 8656 6fba cbdf 67be
00000080: 6b7b f33e 5fe6 0bbe 5fcb 873e 3d46 32be
00000090: 147f 09bc 2e42 a4ba 4b4d 2dbd 99b1 96bd
000000a0: ed63 45bc 2fda 49bb a371 bcbd 7970 8fb9
000000b0: 09c6 94bd 2575 53be ce6c afbd e3db 4dbd
000000c0: 86aa 1bbe 19dd 87bd a3a6 06be d138 913d
000000d0: d27b 81be d2b1 bfbd e087 d1bb 5003 09be
000000e0: 12bd ea3e f78a c4bd 8f8f 48be 343c f2bb
000000f0: 08c5 e6bd 16ff 81bd 72e9 71bd 13b8 9fbc
00000100: b811 aeba 3b15 093e b3f3 8dba 35bb 2a3e
00000110: df49 0abe 9ef0 95bd 67f3 c8bd 2188 17bd
00000120: b520 2ebe e284 2bbd 9912 43be a862 083f
00000130: 3faa c2bb a53e 43ba 010e e1bc 6968 bcbd
00000140: 04a1 ebbd 0765 21b9 26bb abbc 0be9 913e
-0.005403124 -0.0025845962 0.26088247 -0.0024226091 -0.00018358852 -0.060436815 -0.10272848 -0.018050574
0.16435681 -0.06688457 0.72947854 -0.13558139 -0.053731203 -0.029018413 -0.11342806 -0.030284954
-0.023942804 -0.13298574 -0.09605829 -0.14966173 -0.08558143 -0.0029270502 -0.12043567 -0.018248158
0.0028519777 -0.040420182 -0.18502884 -0.031963624 -0.030334288 -0.059265085 -0.00091300195 -0.22643964
0.47555098 -0.13662098 0.26522347 -0.17409606 -0.008392114 -0.001253193 -0.04231004 -0.07358093
-0.01204775 -0.0030800214 -0.09201362 -0.00027358884 -0.07264335 -0.20650156 -0.08565675 -0.05025853
-0.15201768 -0.06633968 -0.13149504 0.07090915 -0.2528978 -0.093600884 -0.0063943714 -0.1338017
0.45847374 -0.09596818 -0.19586013 -0.0073924307 -0.112680495 -0.06347482 -0.05906052 -0.019496953
-0.0013280427 0.13387005 -0.0010830074 0.16672976 -0.13504742 -0.07321285 -0.0981205 -0.036995057
-0.17004664 -0.041874774 -0.19050063 0.5327554 -0.005940705 -0.00074479944 -0.027472498 -0.09199602
-0.11505321 -0.00015391792 -0.020963263 0.2849811

model.11.weight f4 [10, 84]
00000000: 5d4f 8d3a 6080 8ab6 4fff 78bf 8b25 32b9
00000010: 7cc4 fab7 c6fb b53a 1e43 e2b9 84c3 1ab9
00000020: a5a5 8ebe 08f8 b7bd 517b 3abf ac61 a9bd
00000030: 10a6 91b9 646f cebc f607 a3bd 9398 283b
00000040: 79f6 55bc 16ee 24be 3c03 10b9 ab40 8ebb
00000050: 7657 cfbc b809 fdb8 20aa 263d 523a 593b
00000060: bdca 97bd 6903 93ba 54cb c9bb b779 d5bb
00000070: 1c5f 153d 4546 b3bc 0e57 88b7 ce8d 333d
00000080: 6e12 f2be c074 e13c 6b87 9fbe de53 55bd
00000090: 2707 bbba ffb9 1eb2 cc20 983c 2c2e 9b35
000000a0: 5bd4 96b7 9e19 d933 6ae3 393b 3ff2 bbb7
000000b0: 265a 3dbb 702f 27bc 6fef ffbb a755 7c3c
000000c0: 7b57 debb 2f04 6bbc d6f3 a23d ee0b 20bd
000000d0: 55e2 0dbf a38b efbb d1fa 01b3 a3fa f8bd
000000e0: c050 e4be 67fe 04bd fef6 b23c 5e39 713a
000000f0: 62e5 6cbd eedf a9bc 9216 c5b3 385b ad39
00000100: b4ed 3733 a648 1ebf dd0f 3bb9 4b1d 603f
00000110: c8b2 e03d aae3 683e a6ce b2bd 189a 8ebb
00000120: b5a2 6cbd e702 b630 9d5c ffbc 6442 34bf
00000130: 5061 7cbb 5f14 75b4 be80 3c3c ac50 a83d
00000140: 1fc8 1cbd 3479 37ba 8b91 893c 51e0 ddbe
00000150: 6faa 34b6 e4d4 8eb7 3901 623f 270a 2d3a
00000160: 9e55 feb6 46b3 aeb9 1eaa aa3a 9e5f 04bb
00000170: 66f2 7dbf 32b7 6f3b 070d 27bf 9a48 653d
00000180: bfbf b2b9 1b2a a9bc a936 a3bc 4827 28b7
00000190: 1006 df37 8185 eabc 02ee 80bb d4e5 753d
000001a0: 4c3f 5a3c 9152 74bb dee5 49bc c544 243c
000001b0: 4d07 43bd 1714 92bc 8ba0 c0bc 9762 49ba
000001c0: ca26 773c 6662 3cba 6e90 613a 7093 963d
000001d0: 0556 46bf 2442 ebbc 1e30 7ebf a9c0 9d3d
000001e0: c9c0 a6ba 7a34 71b8 0a1d 6334 c329 83ba
000001f0: 335a 8db9 680a 0634 a26b 013d f3aa 1936
00000200: 8444 673c d9ab 5b3c 1afa c8b9 e905 4737
00000210: bc4e 85bc 91af aabd 7d2a 1ebb 7082 f4bc
00000220: 1170 67be 929d 4bbb c1c1 393b 39f9 083d
00000230: b97c 2dbe d775 8b3c ed07 ae3d 3669 7636
00000240: fefb 22be 1efd 76bd cef6 b5bc adb7 2dbd
00000250: 82e7 873b 5848 1fbf f38e 0536 38e7 dbbd
00000260: 5f14 bbbc 683d 9abe d9b2 79bd bf52 dcbc
00000270: 83b2 af3d d6a7 9437 2067 3b3d dacf cbbe
00000280: 3b64 32ba a1b3 4cb2 49ff 653c a767 903d
00000290: 1eb2 a0bd 596a 8932 d92e 1b3a ed8e 29bf
000002a0: ac27 3ab9 6289 ceb7 2871 81be 59eb 743b
000002b0: d3d7 d839 e052 353d 2371 f13b 0cf1 24bd
000002c0: 26c6 313f 99e5 f73d 915c 09bf 0811 43bd
000002d0: 2ad7 9ab9 2dc4 cf3d 3656 133b 2808 5f3b
000002e0: 9cfc 73bc d6d1 a23c 3c16 60bc 48ea aebd
000002f0: 8c61 b0b8 2bd1 9638 9a84 3f3c 3bd0 1cbc
00000300: 4f8a c13c 909d da3b 0f03 2cbd 9dcb d9b9
00000310: b80b e33c cd2d c43b 2002 593a 98e7 8e3d
00000320: 34c6 30bf d6a5 373c b00f 35bf 9491 813d
00000330: 1a27 a0ba e16c b735 e76c 383c afcd 8c38
00000340: ca68 183b 21b2 0a3b 8485 0dbd 168a 0639
00000350: 0c89 95bc 1c73 1cbd 2d9e b3bc b0f8 b13c
00000360: bd0a ba3c 7a29 52bd 8818 afbc 5766 67bd
00000370: ecdf 33be 384e 133d 3736 be38 a9d4 b83d
00000380: de8d e5be 86d4 57bc bb2f 17bd 8bbd cfb4
00000390: c536 c93c 3be8 143d 3b60 253d 021f b2ba
000003a0: d235 d0bb 6013 1bbe 4149 72bc 7516 47bf
000003b0: 7594 92bc d8c9 eb3a 3970 d23d 6a4f 983b
000003c0: 2741 fb3c a063 37b8 489f 2ebc ef27 11bf
000003d0: 4ea7 ddbb d610 7a3a 64a5 973c 9e0c 25bd
000003e0: f547 c7bc 5ca2 d4b6 58ef 9d3c 7991 16bf
000003f0: abf7 33bb 8ba6 c735 45dc 1bbf 9509 12ba
0.0010781098 -4.1276653e-06 -0.9726457 -0.00016989389 -2.9893818e-05 0.0013884238 -0.00043156085 -0.0001475942
-0.27860752 -0.08982855 -0.72844416 -0.082705826 -0.0002778028 -0.0251996 -0.07960503 0.0025725707
-0.013059252 -0.16106448 -0.00013734115 -0.004341205 -0.02531026 -0.0001206579 0.040689588 0.0033146334
-0.07411716 -0.0011216226 -0.006158272 -0.0065147537 0.036467656 -0.021884093 -1.6253001e-05 0.043836407
-0.47279686 0.027521491 -0.31158003 -0.052081935 -0.0014269099 -9.239101e-09 0.018570326 1.1561838e-06
-1.798028e-05 1.010951e-07 0.002836431 -2.2404942e-05 -0.0028892844 -0.010204181 -0.007810525 0.0154012805
-0.006785331 -0.014344259 0.07956664 -0.039073877 -0.5542348 -0.007310347 -3.026327e-08 -0.1215718
-0.44592857 -0.03246918 0.02184629 0.0009201969 -0.057835944 -0.02073666 -9.177633e-08 0.00033065095
4.2824198e-08 -0.618296 -0.00017839619 0.875447 0.109716 0.22743097 -0.08730821 -0.0043518655
-0.057772357 1.3243068e-09 -0.031172091 -0.70413804 -0.0038510151 -2.2824814e-07 0.011505304 0.08218512
-0.038276788 -0.00069989567 0.016793033 -0.43335202 -2.6921296e-06 -1.7026854e-05 0.88283116 0.0006600939
-7.579757e-06 -0.00033321435 0.001302067 -0.0020198594 -0.99197996 0.0036577699 -0.65254253 0.05597744
-0.00034093668 -0.02064996 -0.019923525 -1.0022726e-05 2.6586495e-05 -0.028628113 -0.0039346227 0.060033634
0.013320755 -0.0037280659 -0.012322871 0.010026162 -0.047614384 -0.017831845 -0.023514053 -0.00076822325
0.015084932 -0.00071862934 0.00086045905 0.0735234 -0.77475005 -0.028718062 -0.9929217 0.07702763
-0.0012722249 -5.750775e-05 2.1151587e-07 -0.0010006953 -0.0002696082 1.2483508e-07 0.031596787 2.2898282e-06
0.0141154565 0.013407671 -0.00038333313 1.18627e-05 -0.016272895 -0.08334268 -0.0024134212 -0.029847354
-0.22601344 -0.003106926 0.0028344246 0.033440802 -0.16942109 0.017023964 0.084976055 3.6718097e-06
-0.1591644 -0.060299985 -0.022212412 -0.042411495 0.004147471 -0.6221976 1.9901752e-06 -0.10737461
-0.022836862 -0.30124974 -0.060961578 -0.026894925 0.0857897 1.772113e-05 0.045752645 -0.39807016
-0.00068050966 -1.1915206e-08 0.0140379155 0.0705102 -0.07846473 1.599726e-08 0.00059197616 -0.6623371
-0.00017753121 -2.4621088e-05 -0.25281644 0.0037371723 0.00041359532 0.04426849 0.0073682233 -0.040268943
0.69442976 0.12104339 -0.5365687 -0.047623664 -0.0002953348 0.101448394 0.0022481806 0.003403196
-0.01489177 0.019875448 -0.013677176 -0.08540779 -8.4105035e-05 7.191518e-05 0.0116893295 -0.00957113
0.023625521 0.006671615 -0.041995104 -0.0004154117 0.027715549 0.005986905 0.000827821 0.06977767
-0.69052434 0.011208972 -0.7072706 0.06326595 -0.0012218684 1.366625e-06 0.011256433 6.714032e-05
0.0023255819 0.0021163302 -0.03455116 0.00012830677 -0.018253826 -0.038195714 -0.02192601 0.021725029
0.022710199 -0.051309086 -0.021374002 -0.056494083 -0.17565888 0.035963267 9.070004e-05 0.09024937
-0.448348 -0.013173228 -0.036910754 -3.8694665e-07 0.024562249 0.036354285 0.040374976 -0.0013589563
-0.006354072 -0.1514411 -0.014787973 -0.7776864 -0.017893055 0.0017989231 0.10275311 0.004648139
0.030670715 -4.3723383e-05 -0.010658093 -0.5670156 -0.006764329 0.0009539252 0.018511482 -0.040295236
-0.024326304 -6.3369935e-06 0.019279167 -0.58815724 -0.0027460854 1.4875126e-06 -0.6088298 -0.0005570886

model.11.bias f4 [10]
00000000: 641e 66be 6195 70bd 04a6 77be 7c6f 1b3e
00000010: f8b1 acbe 76d3 753d f726 acbe 87bd 59be
00000020: 4fd4 153f 8470 0a3d
-0.2247253 -0.05873621 -0.24184424 0.15179247 -0.3372953 0.060016118 -0.33623478 -0.21263705
0.5852708 0.03379871
